KernelSR(
  (feat_extraction): RepVGGFE(
    (stage0): RepVGGBlock(
      (nonlinearity): ReLU()
      (se): Identity()
      (rbr_dense): Sequential(
        (conv): Conv2d(3, 14, kernel_size=(3, 3), stride=(1, 1), padding=(1, 1), bias=False)
      )
      (rbr_1x1): Sequential(
        (conv): Conv2d(3, 14, kernel_size=(1, 1), stride=(1, 1), bias=False)
      )
    )
    (stage1): RepVGGBlock(
      (nonlinearity): ReLU()
      (se): Identity()
      (rbr_identity): BatchNorm2d(14, eps=1e-05, momentum=0.1, affine=True, track_running_stats=True)
      (rbr_dense): Sequential(
        (conv): Conv2d(14, 14, kernel_size=(3, 3), stride=(1, 1), padding=(1, 1), bias=False)
      )
      (rbr_1x1): Sequential(
        (conv): Conv2d(14, 14, kernel_size=(1, 1), stride=(1, 1), bias=False)
      )
    )
    (stage2): RepVGGBlock(
      (nonlinearity): ReLU()
      (se): Identity()
      (rbr_dense): Sequential(
        (conv): Conv2d(14, 12, kernel_size=(3, 3), stride=(1, 1), padding=(1, 1), bias=False)
      )
      (rbr_1x1): Sequential(
        (conv): Conv2d(14, 12, kernel_size=(1, 1), stride=(1, 1), bias=False)
      )
    )
  )
  (importance_map): ImportanceMap(
    (upscale): ConvTranspose2d(12, 6, kernel_size=(3, 3), stride=(2, 2), padding=(1, 1), output_padding=(1, 1))
    (genmap): Conv2d(6, 1, kernel_size=(3, 3), stride=(1, 1), padding=(1, 1))
  )
  (kernel_construction): KernelConstruction(
    (unfold): Unfold(kernel_size=(3, 3), dilation=1, padding=1, stride=1)
    (norm): Softmax(dim=1)
  )
  (supersampling): Supersampling(
    (unfold): Unfold(kernel_size=(3, 3), dilation=1, padding=1, stride=1)
  )
)
KernelSR(
  (feat_extraction): RepVGGFE(
    (stage0): RepVGGBlock(
      (nonlinearity): ReLU()
      (se): Identity()
      (rbr_dense): Sequential(
        (conv): Conv2d(3, 14, kernel_size=(3, 3), stride=(1, 1), padding=(1, 1), bias=False)
      )
      (rbr_1x1): Sequential(
        (conv): Conv2d(3, 14, kernel_size=(1, 1), stride=(1, 1), bias=False)
      )
    )
    (stage1): RepVGGBlock(
      (nonlinearity): ReLU()
      (se): Identity()
      (rbr_identity): BatchNorm2d(14, eps=1e-05, momentum=0.1, affine=True, track_running_stats=True)
      (rbr_dense): Sequential(
        (conv): Conv2d(14, 14, kernel_size=(3, 3), stride=(1, 1), padding=(1, 1), bias=False)
      )
      (rbr_1x1): Sequential(
        (conv): Conv2d(14, 14, kernel_size=(1, 1), stride=(1, 1), bias=False)
      )
    )
    (stage2): RepVGGBlock(
      (nonlinearity): ReLU()
      (se): Identity()
      (rbr_dense): Sequential(
        (conv): Conv2d(14, 12, kernel_size=(3, 3), stride=(1, 1), padding=(1, 1), bias=False)
      )
      (rbr_1x1): Sequential(
        (conv): Conv2d(14, 12, kernel_size=(1, 1), stride=(1, 1), bias=False)
      )
    )
  )
  (importance_map): ImportanceMap(
    (upscale): ConvTranspose2d(12, 6, kernel_size=(3, 3), stride=(2, 2), padding=(1, 1), output_padding=(1, 1))
    (genmap): Conv2d(6, 1, kernel_size=(3, 3), stride=(1, 1), padding=(1, 1))
  )
  (kernel_construction): KernelConstruction(
    (unfold): Unfold(kernel_size=(3, 3), dilation=1, padding=1, stride=1)
    (norm): Softmax(dim=1)
  )
  (supersampling): Supersampling(
    (unfold): Unfold(kernel_size=(3, 3), dilation=1, padding=1, stride=1)
  )
)
KernelSR(
  (feat_extraction): RepVGGFE(
    (stage0): RepVGGBlock(
      (nonlinearity): ReLU()
      (se): Identity()
      (rbr_dense): Sequential(
        (conv): Conv2d(3, 14, kernel_size=(3, 3), stride=(1, 1), padding=(1, 1), bias=False)
      )
      (rbr_1x1): Sequential(
        (conv): Conv2d(3, 14, kernel_size=(1, 1), stride=(1, 1), bias=False)
      )
    )
    (stage1): RepVGGBlock(
      (nonlinearity): ReLU()
      (se): Identity()
      (rbr_identity): BatchNorm2d(14, eps=1e-05, momentum=0.1, affine=True, track_running_stats=True)
      (rbr_dense): Sequential(
        (conv): Conv2d(14, 14, kernel_size=(3, 3), stride=(1, 1), padding=(1, 1), bias=False)
      )
      (rbr_1x1): Sequential(
        (conv): Conv2d(14, 14, kernel_size=(1, 1), stride=(1, 1), bias=False)
      )
    )
    (stage2): RepVGGBlock(
      (nonlinearity): ReLU()
      (se): Identity()
      (rbr_dense): Sequential(
        (conv): Conv2d(14, 12, kernel_size=(3, 3), stride=(1, 1), padding=(1, 1), bias=False)
      )
      (rbr_1x1): Sequential(
        (conv): Conv2d(14, 12, kernel_size=(1, 1), stride=(1, 1), bias=False)
      )
    )
  )
  (importance_map): ImportanceMap(
    (upscale): ConvTranspose2d(12, 6, kernel_size=(3, 3), stride=(2, 2), padding=(1, 1), output_padding=(1, 1))
    (genmap): Conv2d(6, 1, kernel_size=(3, 3), stride=(1, 1), padding=(1, 1))
  )
  (kernel_construction): KernelConstruction(
    (unfold): Unfold(kernel_size=(3, 3), dilation=1, padding=1, stride=1)
    (norm): Softmax(dim=1)
  )
  (supersampling): Supersampling(
    (unfold): Unfold(kernel_size=(3, 3), dilation=1, padding=1, stride=1)
  )
)
KernelSR(
  (feat_extraction): RepVGGFE(
    (stage0): RepVGGBlock(
      (nonlinearity): ReLU()
      (se): Identity()
      (rbr_dense): Sequential(
        (conv): Conv2d(3, 14, kernel_size=(3, 3), stride=(1, 1), padding=(1, 1), bias=False)
      )
      (rbr_1x1): Sequential(
        (conv): Conv2d(3, 14, kernel_size=(1, 1), stride=(1, 1), bias=False)
      )
    )
    (stage1): RepVGGBlock(
      (nonlinearity): ReLU()
      (se): Identity()
      (rbr_identity): BatchNorm2d(14, eps=1e-05, momentum=0.1, affine=True, track_running_stats=True)
      (rbr_dense): Sequential(
        (conv): Conv2d(14, 14, kernel_size=(3, 3), stride=(1, 1), padding=(1, 1), bias=False)
      )
      (rbr_1x1): Sequential(
        (conv): Conv2d(14, 14, kernel_size=(1, 1), stride=(1, 1), bias=False)
      )
    )
    (stage2): RepVGGBlock(
      (nonlinearity): ReLU()
      (se): Identity()
      (rbr_dense): Sequential(
        (conv): Conv2d(14, 12, kernel_size=(3, 3), stride=(1, 1), padding=(1, 1), bias=False)
      )
      (rbr_1x1): Sequential(
        (conv): Conv2d(14, 12, kernel_size=(1, 1), stride=(1, 1), bias=False)
      )
    )
  )
  (importance_map): ImportanceMap(
    (upscale): ConvTranspose2d(12, 6, kernel_size=(3, 3), stride=(2, 2), padding=(1, 1), output_padding=(1, 1))
    (genmap): Conv2d(6, 1, kernel_size=(3, 3), stride=(1, 1), padding=(1, 1))
  )
  (kernel_construction): KernelConstruction(
    (unfold): Unfold(kernel_size=(3, 3), dilation=1, padding=1, stride=1)
    (norm): Softmax(dim=1)
  )
  (supersampling): Supersampling(
    (unfold): Unfold(kernel_size=(3, 3), dilation=1, padding=1, stride=1)
  )
)
KernelSR(
  (feat_extraction): RepVGGFE(
    (stage0): RepVGGBlock(
      (nonlinearity): ReLU()
      (se): Identity()
      (rbr_dense): Sequential(
        (conv): Conv2d(3, 14, kernel_size=(3, 3), stride=(1, 1), padding=(1, 1), bias=False)
      )
      (rbr_1x1): Sequential(
        (conv): Conv2d(3, 14, kernel_size=(1, 1), stride=(1, 1), bias=False)
      )
    )
    (stage1): RepVGGBlock(
      (nonlinearity): ReLU()
      (se): Identity()
      (rbr_identity): BatchNorm2d(14, eps=1e-05, momentum=0.1, affine=True, track_running_stats=True)
      (rbr_dense): Sequential(
        (conv): Conv2d(14, 14, kernel_size=(3, 3), stride=(1, 1), padding=(1, 1), bias=False)
      )
      (rbr_1x1): Sequential(
        (conv): Conv2d(14, 14, kernel_size=(1, 1), stride=(1, 1), bias=False)
      )
    )
    (stage2): RepVGGBlock(
      (nonlinearity): ReLU()
      (se): Identity()
      (rbr_dense): Sequential(
        (conv): Conv2d(14, 12, kernel_size=(3, 3), stride=(1, 1), padding=(1, 1), bias=False)
      )
      (rbr_1x1): Sequential(
        (conv): Conv2d(14, 12, kernel_size=(1, 1), stride=(1, 1), bias=False)
      )
    )
  )
  (importance_map): ImportanceMap(
    (upscale): ConvTranspose2d(12, 6, kernel_size=(3, 3), stride=(2, 2), padding=(1, 1), output_padding=(1, 1))
    (genmap): Conv2d(6, 18, kernel_size=(3, 3), stride=(1, 1), padding=(1, 1))
  )
  (kernel_construction): KernelConstruction(
    (unfold): Unfold(kernel_size=(3, 3), dilation=1, padding=1, stride=1)
    (norm): Softmax(dim=1)
  )
  (supersampling): Supersampling(
    (unfold): Unfold(kernel_size=(3, 3), dilation=1, padding=1, stride=1)
  )
)
KernelSR(
  (feat_extraction): RepVGGFE(
    (stage0): RepVGGBlock(
      (nonlinearity): ReLU()
      (se): Identity()
      (rbr_dense): Sequential(
        (conv): Conv2d(3, 14, kernel_size=(3, 3), stride=(1, 1), padding=(1, 1), bias=False)
      )
      (rbr_1x1): Sequential(
        (conv): Conv2d(3, 14, kernel_size=(1, 1), stride=(1, 1), bias=False)
      )
    )
    (stage1): RepVGGBlock(
      (nonlinearity): ReLU()
      (se): Identity()
      (rbr_identity): BatchNorm2d(14, eps=1e-05, momentum=0.1, affine=True, track_running_stats=True)
      (rbr_dense): Sequential(
        (conv): Conv2d(14, 14, kernel_size=(3, 3), stride=(1, 1), padding=(1, 1), bias=False)
      )
      (rbr_1x1): Sequential(
        (conv): Conv2d(14, 14, kernel_size=(1, 1), stride=(1, 1), bias=False)
      )
    )
    (stage2): RepVGGBlock(
      (nonlinearity): ReLU()
      (se): Identity()
      (rbr_dense): Sequential(
        (conv): Conv2d(14, 12, kernel_size=(3, 3), stride=(1, 1), padding=(1, 1), bias=False)
      )
      (rbr_1x1): Sequential(
        (conv): Conv2d(14, 12, kernel_size=(1, 1), stride=(1, 1), bias=False)
      )
    )
  )
  (importance_map): ImportanceMap(
    (upscale): ConvTranspose2d(12, 6, kernel_size=(3, 3), stride=(2, 2), padding=(1, 1), output_padding=(1, 1))
    (genmap): Conv2d(6, 6, kernel_size=(3, 3), stride=(1, 1), padding=(1, 1))
  )
  (kernel_construction): KernelConstruction(
    (unfold): Unfold(kernel_size=(3, 3), dilation=1, padding=1, stride=1)
    (norm): Softmax(dim=1)
  )
  (supersampling): Supersampling(
    (unfold): Unfold(kernel_size=(3, 3), dilation=1, padding=1, stride=1)
  )
)
KernelSR(
  (feat_extraction): RepVGGFE(
    (stage0): RepVGGBlock(
      (nonlinearity): ReLU()
      (se): Identity()
      (rbr_dense): Sequential(
        (conv): Conv2d(3, 14, kernel_size=(3, 3), stride=(1, 1), padding=(1, 1), bias=False)
      )
      (rbr_1x1): Sequential(
        (conv): Conv2d(3, 14, kernel_size=(1, 1), stride=(1, 1), bias=False)
      )
    )
    (stage1): RepVGGBlock(
      (nonlinearity): ReLU()
      (se): Identity()
      (rbr_identity): BatchNorm2d(14, eps=1e-05, momentum=0.1, affine=True, track_running_stats=True)
      (rbr_dense): Sequential(
        (conv): Conv2d(14, 14, kernel_size=(3, 3), stride=(1, 1), padding=(1, 1), bias=False)
      )
      (rbr_1x1): Sequential(
        (conv): Conv2d(14, 14, kernel_size=(1, 1), stride=(1, 1), bias=False)
      )
    )
    (stage2): RepVGGBlock(
      (nonlinearity): ReLU()
      (se): Identity()
      (rbr_dense): Sequential(
        (conv): Conv2d(14, 12, kernel_size=(3, 3), stride=(1, 1), padding=(1, 1), bias=False)
      )
      (rbr_1x1): Sequential(
        (conv): Conv2d(14, 12, kernel_size=(1, 1), stride=(1, 1), bias=False)
      )
    )
  )
  (importance_map): ImportanceMap(
    (upscale): ConvTranspose2d(12, 6, kernel_size=(3, 3), stride=(2, 2), padding=(1, 1), output_padding=(1, 1))
    (genmap): Conv2d(6, 18, kernel_size=(3, 3), stride=(1, 1), padding=(1, 1))
  )
  (kernel_construction): KernelConstruction(
    (unfold): Unfold(kernel_size=(3, 3), dilation=1, padding=1, stride=1)
    (norm): Softmax(dim=1)
  )
  (supersampling): Supersampling(
    (unfold): Unfold(kernel_size=(3, 3), dilation=1, padding=1, stride=1)
  )
)
KernelSR(
  (feat_extraction): RepVGGFE(
    (stage0): RepVGGBlock(
      (nonlinearity): ReLU()
      (se): Identity()
      (rbr_dense): Sequential(
        (conv): Conv2d(3, 14, kernel_size=(3, 3), stride=(1, 1), padding=(1, 1), bias=False)
      )
      (rbr_1x1): Sequential(
        (conv): Conv2d(3, 14, kernel_size=(1, 1), stride=(1, 1), bias=False)
      )
    )
    (stage1): RepVGGBlock(
      (nonlinearity): ReLU()
      (se): Identity()
      (rbr_identity): BatchNorm2d(14, eps=1e-05, momentum=0.1, affine=True, track_running_stats=True)
      (rbr_dense): Sequential(
        (conv): Conv2d(14, 14, kernel_size=(3, 3), stride=(1, 1), padding=(1, 1), bias=False)
      )
      (rbr_1x1): Sequential(
        (conv): Conv2d(14, 14, kernel_size=(1, 1), stride=(1, 1), bias=False)
      )
    )
    (stage2): RepVGGBlock(
      (nonlinearity): ReLU()
      (se): Identity()
      (rbr_dense): Sequential(
        (conv): Conv2d(14, 12, kernel_size=(3, 3), stride=(1, 1), padding=(1, 1), bias=False)
      )
      (rbr_1x1): Sequential(
        (conv): Conv2d(14, 12, kernel_size=(1, 1), stride=(1, 1), bias=False)
      )
    )
  )
  (importance_map): ImportanceMap(
    (upscale): ConvTranspose2d(12, 6, kernel_size=(3, 3), stride=(2, 2), padding=(1, 1), output_padding=(1, 1))
    (genmap): Conv2d(6, 18, kernel_size=(3, 3), stride=(1, 1), padding=(1, 1))
  )
  (kernel_construction): KernelConstruction(
    (unfold): Unfold(kernel_size=(3, 3), dilation=1, padding=1, stride=1)
    (norm): Softmax(dim=1)
  )
  (supersampling): Supersampling(
    (unfold): Unfold(kernel_size=(3, 3), dilation=1, padding=1, stride=1)
  )
)
KernelSR(
  (feat_extraction): RepVGGFE(
    (stage0): RepVGGBlock(
      (nonlinearity): ReLU()
      (se): Identity()
      (rbr_dense): Sequential(
        (conv): Conv2d(3, 14, kernel_size=(3, 3), stride=(1, 1), padding=(1, 1), bias=False)
      )
      (rbr_1x1): Sequential(
        (conv): Conv2d(3, 14, kernel_size=(1, 1), stride=(1, 1), bias=False)
      )
    )
    (stage1): RepVGGBlock(
      (nonlinearity): ReLU()
      (se): Identity()
      (rbr_identity): BatchNorm2d(14, eps=1e-05, momentum=0.1, affine=True, track_running_stats=True)
      (rbr_dense): Sequential(
        (conv): Conv2d(14, 14, kernel_size=(3, 3), stride=(1, 1), padding=(1, 1), bias=False)
      )
      (rbr_1x1): Sequential(
        (conv): Conv2d(14, 14, kernel_size=(1, 1), stride=(1, 1), bias=False)
      )
    )
    (stage2): RepVGGBlock(
      (nonlinearity): ReLU()
      (se): Identity()
      (rbr_dense): Sequential(
        (conv): Conv2d(14, 12, kernel_size=(3, 3), stride=(1, 1), padding=(1, 1), bias=False)
      )
      (rbr_1x1): Sequential(
        (conv): Conv2d(14, 12, kernel_size=(1, 1), stride=(1, 1), bias=False)
      )
    )
  )
  (importance_map): ImportanceMap(
    (upscale): ConvTranspose2d(12, 6, kernel_size=(3, 3), stride=(2, 2), padding=(1, 1), output_padding=(1, 1))
    (genmap): Conv2d(6, 18, kernel_size=(3, 3), stride=(1, 1), padding=(1, 1))
  )
  (kernel_construction): KernelConstruction(
    (unfold): Unfold(kernel_size=(3, 3), dilation=1, padding=1, stride=1)
    (norm): Softmax(dim=1)
  )
  (supersampling): Supersampling(
    (unfold): Unfold(kernel_size=(3, 3), dilation=1, padding=1, stride=1)
  )
)
KernelSR(
  (feat_extraction): RepVGGFE(
    (stage0): RepVGGBlock(
      (nonlinearity): ReLU()
      (se): Identity()
      (rbr_dense): Sequential(
        (conv): Conv2d(3, 14, kernel_size=(3, 3), stride=(1, 1), padding=(1, 1), bias=False)
      )
      (rbr_1x1): Sequential(
        (conv): Conv2d(3, 14, kernel_size=(1, 1), stride=(1, 1), bias=False)
      )
    )
    (stage1): RepVGGBlock(
      (nonlinearity): ReLU()
      (se): Identity()
      (rbr_identity): BatchNorm2d(14, eps=1e-05, momentum=0.1, affine=True, track_running_stats=True)
      (rbr_dense): Sequential(
        (conv): Conv2d(14, 14, kernel_size=(3, 3), stride=(1, 1), padding=(1, 1), bias=False)
      )
      (rbr_1x1): Sequential(
        (conv): Conv2d(14, 14, kernel_size=(1, 1), stride=(1, 1), bias=False)
      )
    )
    (stage2): RepVGGBlock(
      (nonlinearity): ReLU()
      (se): Identity()
      (rbr_dense): Sequential(
        (conv): Conv2d(14, 12, kernel_size=(3, 3), stride=(1, 1), padding=(1, 1), bias=False)
      )
      (rbr_1x1): Sequential(
        (conv): Conv2d(14, 12, kernel_size=(1, 1), stride=(1, 1), bias=False)
      )
    )
  )
  (importance_map): ImportanceMap(
    (upscale): ConvTranspose2d(12, 6, kernel_size=(3, 3), stride=(2, 2), padding=(1, 1), output_padding=(1, 1))
    (genmap): Conv2d(6, 18, kernel_size=(3, 3), stride=(1, 1), padding=(1, 1))
  )
  (kernel_construction): KernelConstruction(
    (unfold): Unfold(kernel_size=(3, 3), dilation=1, padding=1, stride=1)
    (norm): Softmax(dim=1)
  )
  (supersampling): Supersampling(
    (unfold): Unfold(kernel_size=(3, 3), dilation=1, padding=1, stride=1)
  )
)
[Epoch 1]	Learning rate: 2.00e-4
KernelSR(
  (feat_extraction): RepVGGFE(
    (stage0): RepVGGBlock(
      (nonlinearity): ReLU()
      (se): Identity()
      (rbr_dense): Sequential(
        (conv): Conv2d(3, 14, kernel_size=(3, 3), stride=(1, 1), padding=(1, 1), bias=False)
      )
      (rbr_1x1): Sequential(
        (conv): Conv2d(3, 14, kernel_size=(1, 1), stride=(1, 1), bias=False)
      )
    )
    (stage1): RepVGGBlock(
      (nonlinearity): ReLU()
      (se): Identity()
      (rbr_identity): BatchNorm2d(14, eps=1e-05, momentum=0.1, affine=True, track_running_stats=True)
      (rbr_dense): Sequential(
        (conv): Conv2d(14, 14, kernel_size=(3, 3), stride=(1, 1), padding=(1, 1), bias=False)
      )
      (rbr_1x1): Sequential(
        (conv): Conv2d(14, 14, kernel_size=(1, 1), stride=(1, 1), bias=False)
      )
    )
    (stage2): RepVGGBlock(
      (nonlinearity): ReLU()
      (se): Identity()
      (rbr_dense): Sequential(
        (conv): Conv2d(14, 12, kernel_size=(3, 3), stride=(1, 1), padding=(1, 1), bias=False)
      )
      (rbr_1x1): Sequential(
        (conv): Conv2d(14, 12, kernel_size=(1, 1), stride=(1, 1), bias=False)
      )
    )
  )
  (importance_map): ImportanceMap(
    (upscale): ConvTranspose2d(12, 6, kernel_size=(3, 3), stride=(2, 2), padding=(1, 1), output_padding=(1, 1))
    (genmap): Conv2d(6, 18, kernel_size=(3, 3), stride=(1, 1), padding=(1, 1))
  )
  (kernel_construction): KernelConstruction(
    (unfold): Unfold(kernel_size=(3, 3), dilation=1, padding=1, stride=1)
    (norm): Softmax(dim=1)
  )
  (supersampling): Supersampling(
    (unfold): Unfold(kernel_size=(3, 3), dilation=1, padding=1, stride=1)
  )
)
[Epoch 1]	Learning rate: 2.00e-4
KernelSR(
  (feat_extraction): RepVGGFE(
    (stage0): RepVGGBlock(
      (nonlinearity): ReLU()
      (se): Identity()
      (rbr_dense): Sequential(
        (conv): Conv2d(3, 14, kernel_size=(3, 3), stride=(1, 1), padding=(1, 1), bias=False)
      )
      (rbr_1x1): Sequential(
        (conv): Conv2d(3, 14, kernel_size=(1, 1), stride=(1, 1), bias=False)
      )
    )
    (stage1): RepVGGBlock(
      (nonlinearity): ReLU()
      (se): Identity()
      (rbr_identity): BatchNorm2d(14, eps=1e-05, momentum=0.1, affine=True, track_running_stats=True)
      (rbr_dense): Sequential(
        (conv): Conv2d(14, 14, kernel_size=(3, 3), stride=(1, 1), padding=(1, 1), bias=False)
      )
      (rbr_1x1): Sequential(
        (conv): Conv2d(14, 14, kernel_size=(1, 1), stride=(1, 1), bias=False)
      )
    )
    (stage2): RepVGGBlock(
      (nonlinearity): ReLU()
      (se): Identity()
      (rbr_dense): Sequential(
        (conv): Conv2d(14, 12, kernel_size=(3, 3), stride=(1, 1), padding=(1, 1), bias=False)
      )
      (rbr_1x1): Sequential(
        (conv): Conv2d(14, 12, kernel_size=(1, 1), stride=(1, 1), bias=False)
      )
    )
  )
  (importance_map): ImportanceMap(
    (upscale): ConvTranspose2d(12, 6, kernel_size=(3, 3), stride=(2, 2), padding=(1, 1), output_padding=(1, 1))
    (genmap): Conv2d(6, 18, kernel_size=(3, 3), stride=(1, 1), padding=(1, 1))
  )
  (kernel_construction): KernelConstruction(
    (unfold): Unfold(kernel_size=(3, 3), dilation=1, padding=1, stride=1)
    (norm): Softmax(dim=1)
  )
  (supersampling): Supersampling(
    (unfold): Unfold(kernel_size=(3, 3), dilation=1, padding=1, stride=1)
  )
)
[Epoch 1]	Learning rate: 2.00e-4
KernelSR(
  (feat_extraction): RepVGGFE(
    (stage0): RepVGGBlock(
      (nonlinearity): ReLU()
      (se): Identity()
      (rbr_dense): Sequential(
        (conv): Conv2d(3, 14, kernel_size=(3, 3), stride=(1, 1), padding=(1, 1), bias=False)
      )
      (rbr_1x1): Sequential(
        (conv): Conv2d(3, 14, kernel_size=(1, 1), stride=(1, 1), bias=False)
      )
    )
    (stage1): RepVGGBlock(
      (nonlinearity): ReLU()
      (se): Identity()
      (rbr_identity): BatchNorm2d(14, eps=1e-05, momentum=0.1, affine=True, track_running_stats=True)
      (rbr_dense): Sequential(
        (conv): Conv2d(14, 14, kernel_size=(3, 3), stride=(1, 1), padding=(1, 1), bias=False)
      )
      (rbr_1x1): Sequential(
        (conv): Conv2d(14, 14, kernel_size=(1, 1), stride=(1, 1), bias=False)
      )
    )
    (stage2): RepVGGBlock(
      (nonlinearity): ReLU()
      (se): Identity()
      (rbr_dense): Sequential(
        (conv): Conv2d(14, 12, kernel_size=(3, 3), stride=(1, 1), padding=(1, 1), bias=False)
      )
      (rbr_1x1): Sequential(
        (conv): Conv2d(14, 12, kernel_size=(1, 1), stride=(1, 1), bias=False)
      )
    )
  )
  (importance_map): ImportanceMap(
    (upscale): ConvTranspose2d(12, 6, kernel_size=(3, 3), stride=(2, 2), padding=(1, 1), output_padding=(1, 1))
    (genmap): Conv2d(6, 18, kernel_size=(3, 3), stride=(1, 1), padding=(1, 1))
  )
  (kernel_construction): KernelConstruction(
    (unfold): Unfold(kernel_size=(3, 3), dilation=1, padding=1, stride=1)
    (norm): Softmax(dim=1)
  )
  (supersampling): Supersampling(
    (unfold): Unfold(kernel_size=(3, 3), dilation=1, padding=1, stride=1)
  )
)
[Epoch 1]	Learning rate: 2.00e-4
KernelSR(
  (feat_extraction): RepVGGFE(
    (stage0): RepVGGBlock(
      (nonlinearity): ReLU()
      (se): Identity()
      (rbr_dense): Sequential(
        (conv): Conv2d(3, 14, kernel_size=(3, 3), stride=(1, 1), padding=(1, 1), bias=False)
      )
      (rbr_1x1): Sequential(
        (conv): Conv2d(3, 14, kernel_size=(1, 1), stride=(1, 1), bias=False)
      )
    )
    (stage1): RepVGGBlock(
      (nonlinearity): ReLU()
      (se): Identity()
      (rbr_identity): BatchNorm2d(14, eps=1e-05, momentum=0.1, affine=True, track_running_stats=True)
      (rbr_dense): Sequential(
        (conv): Conv2d(14, 14, kernel_size=(3, 3), stride=(1, 1), padding=(1, 1), bias=False)
      )
      (rbr_1x1): Sequential(
        (conv): Conv2d(14, 14, kernel_size=(1, 1), stride=(1, 1), bias=False)
      )
    )
    (stage2): RepVGGBlock(
      (nonlinearity): ReLU()
      (se): Identity()
      (rbr_dense): Sequential(
        (conv): Conv2d(14, 12, kernel_size=(3, 3), stride=(1, 1), padding=(1, 1), bias=False)
      )
      (rbr_1x1): Sequential(
        (conv): Conv2d(14, 12, kernel_size=(1, 1), stride=(1, 1), bias=False)
      )
    )
  )
  (importance_map): ImportanceMap(
    (upscale): ConvTranspose2d(12, 6, kernel_size=(3, 3), stride=(2, 2), padding=(1, 1), output_padding=(1, 1))
    (genmap): Conv2d(6, 18, kernel_size=(3, 3), stride=(1, 1), padding=(1, 1))
  )
  (kernel_construction): KernelConstruction(
    (unfold): Unfold(kernel_size=(3, 3), dilation=1, padding=1, stride=1)
    (norm): Softmax(dim=1)
  )
  (supersampling): Supersampling(
    (unfold): Unfold(kernel_size=(3, 3), dilation=1, padding=1, stride=1)
  )
)
[Epoch 1]	Learning rate: 2.00e-4
KernelSR(
  (feat_extraction): RepVGGFE(
    (stage0): RepVGGBlock(
      (nonlinearity): ReLU()
      (se): Identity()
      (rbr_dense): Sequential(
        (conv): Conv2d(3, 14, kernel_size=(3, 3), stride=(1, 1), padding=(1, 1), bias=False)
      )
      (rbr_1x1): Sequential(
        (conv): Conv2d(3, 14, kernel_size=(1, 1), stride=(1, 1), bias=False)
      )
    )
    (stage1): RepVGGBlock(
      (nonlinearity): ReLU()
      (se): Identity()
      (rbr_identity): BatchNorm2d(14, eps=1e-05, momentum=0.1, affine=True, track_running_stats=True)
      (rbr_dense): Sequential(
        (conv): Conv2d(14, 14, kernel_size=(3, 3), stride=(1, 1), padding=(1, 1), bias=False)
      )
      (rbr_1x1): Sequential(
        (conv): Conv2d(14, 14, kernel_size=(1, 1), stride=(1, 1), bias=False)
      )
    )
    (stage2): RepVGGBlock(
      (nonlinearity): ReLU()
      (se): Identity()
      (rbr_dense): Sequential(
        (conv): Conv2d(14, 12, kernel_size=(3, 3), stride=(1, 1), padding=(1, 1), bias=False)
      )
      (rbr_1x1): Sequential(
        (conv): Conv2d(14, 12, kernel_size=(1, 1), stride=(1, 1), bias=False)
      )
    )
  )
  (importance_map): ImportanceMap(
    (upscale): ConvTranspose2d(12, 6, kernel_size=(3, 3), stride=(2, 2), padding=(1, 1), output_padding=(1, 1))
    (genmap): Conv2d(6, 18, kernel_size=(3, 3), stride=(1, 1), padding=(1, 1))
  )
  (kernel_construction): KernelConstruction(
    (unfold): Unfold(kernel_size=(3, 3), dilation=1, padding=1, stride=1)
    (norm): Softmax(dim=1)
  )
  (supersampling): Supersampling(
    (unfold): Unfold(kernel_size=(3, 3), dilation=1, padding=1, stride=1)
  )
)
KernelSR(
  (feat_extraction): RepVGGFE(
    (stage0): RepVGGBlock(
      (nonlinearity): ReLU()
      (se): Identity()
      (rbr_dense): Sequential(
        (conv): Conv2d(3, 14, kernel_size=(3, 3), stride=(1, 1), padding=(1, 1), bias=False)
      )
      (rbr_1x1): Sequential(
        (conv): Conv2d(3, 14, kernel_size=(1, 1), stride=(1, 1), bias=False)
      )
    )
    (stage1): RepVGGBlock(
      (nonlinearity): ReLU()
      (se): Identity()
      (rbr_identity): BatchNorm2d(14, eps=1e-05, momentum=0.1, affine=True, track_running_stats=True)
      (rbr_dense): Sequential(
        (conv): Conv2d(14, 14, kernel_size=(3, 3), stride=(1, 1), padding=(1, 1), bias=False)
      )
      (rbr_1x1): Sequential(
        (conv): Conv2d(14, 14, kernel_size=(1, 1), stride=(1, 1), bias=False)
      )
    )
    (stage2): RepVGGBlock(
      (nonlinearity): ReLU()
      (se): Identity()
      (rbr_dense): Sequential(
        (conv): Conv2d(14, 12, kernel_size=(3, 3), stride=(1, 1), padding=(1, 1), bias=False)
      )
      (rbr_1x1): Sequential(
        (conv): Conv2d(14, 12, kernel_size=(1, 1), stride=(1, 1), bias=False)
      )
    )
  )
  (importance_map): ImportanceMap(
    (upscale): ConvTranspose2d(12, 6, kernel_size=(3, 3), stride=(2, 2), padding=(1, 1), output_padding=(1, 1))
    (genmap): Conv2d(6, 18, kernel_size=(3, 3), stride=(1, 1), padding=(1, 1))
  )
  (kernel_construction): KernelConstruction(
    (unfold): Unfold(kernel_size=(3, 3), dilation=1, padding=1, stride=1)
    (norm): Softmax(dim=1)
  )
  (supersampling): Supersampling(
    (unfold): Unfold(kernel_size=(3, 3), dilation=1, padding=1, stride=1)
  )
)
KernelSR(
  (feat_extraction): RepVGGFE(
    (stage0): RepVGGBlock(
      (nonlinearity): ReLU()
      (se): Identity()
      (rbr_dense): Sequential(
        (conv): Conv2d(3, 14, kernel_size=(3, 3), stride=(1, 1), padding=(1, 1), bias=False)
      )
      (rbr_1x1): Sequential(
        (conv): Conv2d(3, 14, kernel_size=(1, 1), stride=(1, 1), bias=False)
      )
    )
    (stage1): RepVGGBlock(
      (nonlinearity): ReLU()
      (se): Identity()
      (rbr_identity): BatchNorm2d(14, eps=1e-05, momentum=0.1, affine=True, track_running_stats=True)
      (rbr_dense): Sequential(
        (conv): Conv2d(14, 14, kernel_size=(3, 3), stride=(1, 1), padding=(1, 1), bias=False)
      )
      (rbr_1x1): Sequential(
        (conv): Conv2d(14, 14, kernel_size=(1, 1), stride=(1, 1), bias=False)
      )
    )
    (stage2): RepVGGBlock(
      (nonlinearity): ReLU()
      (se): Identity()
      (rbr_dense): Sequential(
        (conv): Conv2d(14, 12, kernel_size=(3, 3), stride=(1, 1), padding=(1, 1), bias=False)
      )
      (rbr_1x1): Sequential(
        (conv): Conv2d(14, 12, kernel_size=(1, 1), stride=(1, 1), bias=False)
      )
    )
  )
  (importance_map): ImportanceMap(
    (upscale): ConvTranspose2d(12, 6, kernel_size=(3, 3), stride=(2, 2), padding=(1, 1), output_padding=(1, 1))
    (genmap): Conv2d(6, 18, kernel_size=(3, 3), stride=(1, 1), padding=(1, 1))
  )
  (kernel_construction): KernelConstruction(
    (unfold): Unfold(kernel_size=(3, 3), dilation=1, padding=1, stride=1)
    (norm): Softmax(dim=1)
  )
  (supersampling): Supersampling(
    (unfold): Unfold(kernel_size=(3, 3), dilation=1, padding=1, stride=1)
  )
)
KernelSR(
  (feat_extraction): RepVGGFE(
    (stage0): RepVGGBlock(
      (nonlinearity): ReLU()
      (se): Identity()
      (rbr_dense): Sequential(
        (conv): Conv2d(3, 14, kernel_size=(3, 3), stride=(1, 1), padding=(1, 1), bias=False)
      )
      (rbr_1x1): Sequential(
        (conv): Conv2d(3, 14, kernel_size=(1, 1), stride=(1, 1), bias=False)
      )
    )
    (stage1): RepVGGBlock(
      (nonlinearity): ReLU()
      (se): Identity()
      (rbr_identity): BatchNorm2d(14, eps=1e-05, momentum=0.1, affine=True, track_running_stats=True)
      (rbr_dense): Sequential(
        (conv): Conv2d(14, 14, kernel_size=(3, 3), stride=(1, 1), padding=(1, 1), bias=False)
      )
      (rbr_1x1): Sequential(
        (conv): Conv2d(14, 14, kernel_size=(1, 1), stride=(1, 1), bias=False)
      )
    )
    (stage2): RepVGGBlock(
      (nonlinearity): ReLU()
      (se): Identity()
      (rbr_dense): Sequential(
        (conv): Conv2d(14, 12, kernel_size=(3, 3), stride=(1, 1), padding=(1, 1), bias=False)
      )
      (rbr_1x1): Sequential(
        (conv): Conv2d(14, 12, kernel_size=(1, 1), stride=(1, 1), bias=False)
      )
    )
  )
  (importance_map): ImportanceMap(
    (upscale): ConvTranspose2d(12, 6, kernel_size=(3, 3), stride=(2, 2), padding=(1, 1), output_padding=(1, 1))
    (genmap): Conv2d(6, 18, kernel_size=(3, 3), stride=(1, 1), padding=(1, 1))
  )
  (kernel_construction): KernelConstruction(
    (unfold): Unfold(kernel_size=(3, 3), dilation=1, padding=1, stride=1)
    (norm): Softmax(dim=1)
  )
  (supersampling): Supersampling(
    (unfold): Unfold(kernel_size=(3, 3), dilation=1, padding=1, stride=1)
  )
)
KernelSR(
  (feat_extraction): RepVGGFE(
    (stage0): RepVGGBlock(
      (nonlinearity): ReLU()
      (se): Identity()
      (rbr_dense): Sequential(
        (conv): Conv2d(3, 14, kernel_size=(3, 3), stride=(1, 1), padding=(1, 1), bias=False)
      )
      (rbr_1x1): Sequential(
        (conv): Conv2d(3, 14, kernel_size=(1, 1), stride=(1, 1), bias=False)
      )
    )
    (stage1): RepVGGBlock(
      (nonlinearity): ReLU()
      (se): Identity()
      (rbr_identity): BatchNorm2d(14, eps=1e-05, momentum=0.1, affine=True, track_running_stats=True)
      (rbr_dense): Sequential(
        (conv): Conv2d(14, 14, kernel_size=(3, 3), stride=(1, 1), padding=(1, 1), bias=False)
      )
      (rbr_1x1): Sequential(
        (conv): Conv2d(14, 14, kernel_size=(1, 1), stride=(1, 1), bias=False)
      )
    )
    (stage2): RepVGGBlock(
      (nonlinearity): ReLU()
      (se): Identity()
      (rbr_dense): Sequential(
        (conv): Conv2d(14, 12, kernel_size=(3, 3), stride=(1, 1), padding=(1, 1), bias=False)
      )
      (rbr_1x1): Sequential(
        (conv): Conv2d(14, 12, kernel_size=(1, 1), stride=(1, 1), bias=False)
      )
    )
  )
  (importance_map): ImportanceMap(
    (upscale): ConvTranspose2d(12, 6, kernel_size=(3, 3), stride=(2, 2), padding=(1, 1), output_padding=(1, 1))
    (genmap): Conv2d(6, 18, kernel_size=(3, 3), stride=(1, 1), padding=(1, 1))
  )
  (kernel_construction): KernelConstruction(
    (unfold): Unfold(kernel_size=(3, 3), dilation=1, padding=1, stride=1)
    (norm): Softmax(dim=1)
  )
  (supersampling): Supersampling(
    (unfold): Unfold(kernel_size=(3, 3), dilation=1, padding=1, stride=1)
  )
)
[Epoch 1]	Learning rate: 2.00e-4
[1600/15600]	[L1: 0.2620]	4.6+45.8s
[3200/15600]	[L1: 0.1827]	4.4+40.1s
[4800/15600]	[L1: 0.1472]	4.4+37.4s
[6400/15600]	[L1: 0.1275]	4.5+39.6s
[8000/15600]	[L1: 0.1147]	4.5+38.7s
[9600/15600]	[L1: 0.1052]	4.4+36.8s
[11200/15600]	[L1: 0.0977]	4.4+39.2s
[12800/15600]	[L1: 0.0919]	4.4+39.1s
[14400/15600]	[L1: 0.0871]	4.4+37.3s
[Epoch 2]	Learning rate: 2.00e-4
KernelSR(
  (feat_extraction): RepVGGFE(
    (stage0): RepVGGBlock(
      (nonlinearity): ReLU()
      (se): Identity()
      (rbr_dense): Sequential(
        (conv): Conv2d(3, 14, kernel_size=(3, 3), stride=(1, 1), padding=(1, 1), bias=False)
      )
      (rbr_1x1): Sequential(
        (conv): Conv2d(3, 14, kernel_size=(1, 1), stride=(1, 1), bias=False)
      )
    )
    (stage1): RepVGGBlock(
      (nonlinearity): ReLU()
      (se): Identity()
      (rbr_identity): BatchNorm2d(14, eps=1e-05, momentum=0.1, affine=True, track_running_stats=True)
      (rbr_dense): Sequential(
        (conv): Conv2d(14, 14, kernel_size=(3, 3), stride=(1, 1), padding=(1, 1), bias=False)
      )
      (rbr_1x1): Sequential(
        (conv): Conv2d(14, 14, kernel_size=(1, 1), stride=(1, 1), bias=False)
      )
    )
    (stage2): RepVGGBlock(
      (nonlinearity): ReLU()
      (se): Identity()
      (rbr_dense): Sequential(
        (conv): Conv2d(14, 12, kernel_size=(3, 3), stride=(1, 1), padding=(1, 1), bias=False)
      )
      (rbr_1x1): Sequential(
        (conv): Conv2d(14, 12, kernel_size=(1, 1), stride=(1, 1), bias=False)
      )
    )
  )
  (importance_map): ImportanceMap(
    (upscale): ConvTranspose2d(12, 6, kernel_size=(3, 3), stride=(2, 2), padding=(1, 1), output_padding=(1, 1))
    (genmap): Conv2d(6, 18, kernel_size=(3, 3), stride=(1, 1), padding=(1, 1))
  )
  (kernel_construction): KernelConstruction(
    (unfold): Unfold(kernel_size=(3, 3), dilation=1, padding=1, stride=1)
    (norm): Softmax(dim=1)
  )
  (supersampling): Supersampling(
    (unfold): Unfold(kernel_size=(3, 3), dilation=1, padding=1, stride=1)
  )
)
[Epoch 1]	Learning rate: 2.00e-4
KernelSR(
  (feat_extraction): RepVGGFE(
    (stage0): RepVGGBlock(
      (nonlinearity): ReLU()
      (se): Identity()
      (rbr_dense): Sequential(
        (conv): Conv2d(3, 14, kernel_size=(3, 3), stride=(1, 1), padding=(1, 1), bias=False)
      )
      (rbr_1x1): Sequential(
        (conv): Conv2d(3, 14, kernel_size=(1, 1), stride=(1, 1), bias=False)
      )
    )
    (stage1): RepVGGBlock(
      (nonlinearity): ReLU()
      (se): Identity()
      (rbr_identity): BatchNorm2d(14, eps=1e-05, momentum=0.1, affine=True, track_running_stats=True)
      (rbr_dense): Sequential(
        (conv): Conv2d(14, 14, kernel_size=(3, 3), stride=(1, 1), padding=(1, 1), bias=False)
      )
      (rbr_1x1): Sequential(
        (conv): Conv2d(14, 14, kernel_size=(1, 1), stride=(1, 1), bias=False)
      )
    )
    (stage2): RepVGGBlock(
      (nonlinearity): ReLU()
      (se): Identity()
      (rbr_dense): Sequential(
        (conv): Conv2d(14, 12, kernel_size=(3, 3), stride=(1, 1), padding=(1, 1), bias=False)
      )
      (rbr_1x1): Sequential(
        (conv): Conv2d(14, 12, kernel_size=(1, 1), stride=(1, 1), bias=False)
      )
    )
  )
  (importance_map): ImportanceMap(
    (upscale): ConvTranspose2d(12, 6, kernel_size=(3, 3), stride=(2, 2), padding=(1, 1), output_padding=(1, 1))
    (genmap): Conv2d(6, 18, kernel_size=(3, 3), stride=(1, 1), padding=(1, 1))
  )
  (kernel_construction): KernelConstruction(
    (unfold): Unfold(kernel_size=(3, 3), dilation=1, padding=1, stride=1)
    (norm): Softmax(dim=1)
  )
  (supersampling): Supersampling(
    (unfold): Unfold(kernel_size=(3, 3), dilation=1, padding=1, stride=1)
  )
)
[Epoch 1]	Learning rate: 2.00e-4
[800/15600]	[L1: 0.3687]	2.3+21.6s
[1600/15600]	[L1: 0.2620]	2.2+18.9s
…
